saved_models/lab3/SimpleClassifier/lightning_logs/version_2/checkpoints/epoch=86-step=88044.ckpt (torch, 11223 bytes, 6 tensors)

model.fc1.weight f4 [16, 100]
000000 a7 c2 39 be dc bd 37 3f f8 fa 0d 3d a0 8b a7 3e
       -0.1814066 0.7177408 0.03466317 0.32723713
000010 99 44 78 3e f2 94 96 bd 64 57 ba be 3b 50 92 3e
       0.24244918 -0.07352628 -0.363948 0.28576836
000020 e4 82 46 3d 0b f0 fd be 7b 35 fa 3d a1 e4 e6 be
       0.04846467 -0.495972 0.12217232 -0.45096305
000030 87 5b 26 3f 86 5f 26 3e d2 b4 76 3e a6 ca 05 3e
       0.6498341 0.16247377 0.24092415 0.13065585
000040 1f 01 9f bd 7b a9 0b 3f 96 d0 16 bf f2 27 88 bd
       -0.07763886 0.5455548 -0.58912027 -0.06648244
000050 9a ee 10 bf 07 1c ec be 26 90 8d bd 48 53 91 3c
       -0.5661408 -0.46115133 -0.0691226 0.017739907
000060 bc e6 9a be bc f0 2f be 9c 9e 7e 3d 49 7e a2 bd
       -0.3025416 -0.17181677 0.06216298 -0.07934243
000070 a4 4c 0d 3d 01 93 9e 3d 3a 8a 78 3e f5 97 bb be
       0.03449692 0.077428825 0.24271479 -0.36639372
000080 c1 27 f8 be 96 3d 4f 3d ed f6 98 3d 33 4f e3 3c
       -0.4846783 0.050595842 0.07468972 0.027747726
000090 75 d2 af 3d 65 ef 91 3d 84 6d 8b 3e 47 5b 97 bd
       0.08585063 0.07125739 0.2723199 -0.07390457
0000a0 d5 d0 64 3e d4 a5 66 3e d1 8d 8d 3e 0d 1f ab be
       0.22345288 0.22524196 0.2764726 -0.33422127
0000b0 59 9c b6 3e 5f 10 5c be b3 37 aa 3e 6e a9 89 3e
       0.3566616 -0.2149062 0.3324562 0.26887077
0000c0 d6 5f 6f 3c 27 69 bc be da dd 99 be 51 4c 60 be
       0.014610251 -0.36798975 -0.30052072 -0.21904112
0000d0 dd 2f bb bd 15 cf 17 be c4 8d 7b 3e dd 55 80 3e
       -0.091399886 -0.1482509 0.24565798 0.25065508
0000e0 c6 54 69 3e d0 67 1d 3e 4d 5e 93 be d7 66 8f be
       0.22786245 0.15371633 -0.28782883 -0.28008148
0000f0 45 47 11 3e 2b 80 73 be 10 4d 94 bd 95 0f eb 3d
       0.14187343 -0.23779361 -0.07241261 0.114775814
000100 28 29 8b 3e fc a7 53 be 20 37 d9 be 85 24 48 bf
       0.27179837 -0.2066955 -0.4242487 -0.78180724
000110 e1 b1 4d be b5 f3 81 be 12 4b 1d be 58 2a 68 be
       -0.20087387 -0.25381246 -0.15360668 -0.22672403
000120 b6 e3 c8 3e d6 0b 91 3c 48 ca 17 bf 50 c7 98 be
       0.3923623 0.01770584 -0.5929303 -0.29839563
000130 fc 59 21 bd d4 cd f7 bd 62 a7 cd 3e e5 b9 17 bf
       -0.039392456 -0.120998055 0.40166765 -0.5926803
000140 07 26 81 3d 3c 3c 06 be e6 72 a3 3e 91 18 c0 3e
       0.06306081 -0.13108915 0.31923598 0.37518743
000150 e0 43 89 3e 7e 59 00 be cb b2 0d 3f 97 96 1d be
       0.26809597 -0.12534139 0.5535094 -0.15389477
000160 2b aa 17 3f 21 53 1a bf 06 7d 49 bc dd 59 1f 3e
       0.5924403 -0.60283095 -0.012297874 0.15561624
000170 01 7e d1 3a f8 a6 61 bd 24 0f 00 bd 8a e3 d3 3c
       0.0015982987 -0.055090874 -0.03126444 0.025865335
000180 b2 19 9f 3e e5 e3 fc bd 40 89 01 3e 76 98 99 be
       0.3107429 -0.12348155 0.12650013 -0.2999913
000190 a2 10 9f bc b3 b1 e1 3e 63 66 2a 3e e0 b5 17 bf
       -0.01941711 0.44080886 0.1664062 -0.59261894
0001a0 37 18 85 3e c6 9b 8d be b3 f7 2c 3e 72 5f 78 3e
       0.25995037 -0.27657908 0.16891365 0.2425516
0001b0 22 ee 04 3e fd 96 c3 be f7 af a1 bd 05 5c aa 3e
       0.12981465 -0.38201132 -0.07894891 0.3327333
0001c0 04 8d f4 3e 2f f9 c2 3e 91 38 47 3d a0 09 60 be
       0.47763836 0.38080737 0.04863793 -0.21878672
0001d0 14 74 22 3e c3 fd e7 be 2f 54 2a be b6 5f 94 be
       0.15864593 -0.45310792 -0.16633676 -0.28979272
0001e0 27 79 6b bd a9 10 9c be 11 47 51 bc 45 db ab be
       -0.057488587 -0.3048146 -0.012773291 -0.33565727
0001f0 65 93 3b be a4 d9 32 bd 91 b8 0d 3f ae 8e ab be
       -0.18317945 -0.04366459 0.5535975 -0.33507293
000200 ca 07 60 ba 2b d5 1f be 1a 6b 13 3f 3a d9 04 3d
       -0.00085460825 -0.15608661 0.575853 0.032433726
000210 27 1b e5 be 46 a9 fa 3e 4f e7 02 bd f2 55 52 3e
       -0.44747278 0.4895727 -0.031958874 0.20540598
000220 ca a1 29 bd 2a 5c 9e 3d 94 c9 0b bd 18 05 3b 3e
       -0.04141406 0.07732423 -0.034127787 0.18263662
000230 91 39 b1 3e 6c f7 11 be 73 6d 15 3e cc 23 5a bf
       0.34614232 -0.1425454 0.14592533 -0.8521087
000240 8e df 43 be f6 1d a1 3d ff 92 83 be 07 5f 99 3e
       -0.19128248 0.07867043 -0.25698087 0.29955313
000250 40 a2 9c 3d 4d 03 2b 3e be 9a fd be 93 7b aa bd
       0.07648134 0.16700478 -0.4953212 -0.08324351
000260 a1 ee 7d be 06 43 89 3e e2 64 58 3e ef c1 4a be
       -0.24798061 0.26808947 0.21132234 -0.19800542
000270 ba 35 82 be 9f 3a b5 bc f9 20 a8 3c 7d 47 fd 3e
       -0.25431615 -0.02212268 0.020523535 0.49468604
000280 33 a6 a4 be 14 53 69 be c0 f1 7a 3e b0 ba 11 3d
       -0.3215805 -0.22785598 0.24506283 0.03557843
000290 70 67 59 be 8d f2 52 3e 51 ac 9f be 73 93 f0 bd
       -0.21230865 0.20600338 -0.31186154 -0.11746874
0002a0 45 3d 9d 3c 82 e8 37 be a6 b2 86 3e 9e 64 ac 3d
       0.019194255 -0.17959788 0.26308173 0.08417629
0002b0 e4 42 51 be a9 25 46 be 6e 90 5e 3e 78 88 6f 3d
       -0.20435673 -0.19350304 0.21734783 0.058479756
0002c0 77 81 23 3e 48 93 10 bf f6 ef d1 3e df bf b1 be
       0.15967356 -0.56474733 0.41003388 -0.347167
0002d0 61 1b b1 be e2 76 f2 bd cf cc 86 3e b4 d0 04 3f
       -0.345912 -0.11839081 0.26328132 0.51880956
0002e0 da f4 37 be 7e 4f bb be ea 58 70 be 48 c9 6d be
       -0.17964497 -0.36584085 -0.23471418 -0.23221314
0002f0 49 af 2b be ba 69 b0 bd ea 01 1e 3e 08 1a ba 3e
       -0.16766085 -0.08613916 0.15430418 0.36347985
000300 d5 d3 8c 3e 25 43 c1 bd 09 fb e2 be 50 6f bd 3d
       0.27505365 -0.09436635 -0.4433215 0.09249747
000310 cd ce 01 bf 00 d8 16 3d f5 76 04 3f d1 dd 79 be
       -0.5070618 0.036827087 0.51744014 -0.24401022
000320 7d 21 ef be a9 ae c7 3e 5a 66 e0 bd 1a c5 83 3e
       -0.46705237 0.39000443 -0.10957022 0.25736314
000330 a8 8e 93 be 8e 84 7f bc 2f 87 19 bf 77 93 4a be
       -0.28819776 -0.015595568 -0.599719 -0.19782816
000340 d5 dc b5 3e 6a 14 0f 3f 84 c5 48 3c 99 29 29 3f
       0.35520044 0.55890524 0.012254123 0.660791
000350 5b 64 ed be e2 f4 31 be 01 87 b2 3d 2c 44 d6 bd
       -0.46365628 -0.17378572 0.08717156 -0.104622215
000360 ce 56 9a 3e 7f 8e a0 be f8 1d 28 3e 33 90 8a 3e
       0.30144352 -0.31358716 0.16417682 0.2706314
000370 70 14 97 3d bf fe 3d bc 2e ec 7c be 5f 02 b7 3e
       0.07376945 -0.011596381 -0.2469947 0.35743997
000380 06 3d c1 3e 80 e7 b0 3e 4b 0b 44 bd 33 85 a8 be
       0.3774187 0.3455162 -0.047862332 -0.32914123
000390 85 ae 3c 3e 34 9d e2 bd 84 28 1d be 07 b6 0f bf
       0.18425949 -0.1106514 -0.15347487 -0.56137127
0003a0 c3 02 0f 3e c5 34 6f bd b1 99 22 bd f2 7f 18 bc
       0.13965897 -0.058399934 -0.039697353 -0.009307848
0003b0 3a c2 03 be d7 45 08 3e 19 f6 b3 bd 0d fb dc bc
       -0.1286706 0.13307892 -0.08787174 -0.02697518
0003c0 6f 12 af bd 71 b4 0e bd 52 a1 87 be f6 98 56 3d
       -0.08548438 -0.03484005 -0.26490265 0.05239197
0003d0 da 14 8d 3e ea 82 fa be db 9a 51 be 95 d5 5c 3c
       0.2755497 -0.48928005 -0.20469229 0.013478656
0003e0 4c e8 27 be d6 70 d1 3d 3d 60 2d be d2 02 b2 3e
       -0.16397208 0.102266 -0.16931243 0.34767777
0003f0 2e 1a 53 be 7e 89 bc 3e 6b 6d 4a be 14 f4 3d 3e
       -0.20615456 0.36823648 -0.19768302 0.1855014

model.fc1.bias f4 [16]
000000 62 b6 48 bf 71 91 f7 be b7 b2 1e bf bf a2 05 3f
       -0.78403294 -0.4835315 -0.6199145 0.52201456
000010 29 b1 a5 3e 26 99 a8 3e 1d 60 2c bf e3 09 03 3f
       0.32361725 0.32929343 -0.6733416 0.5118696
000020 ae b2 15 bf 7f 15 66 3f 10 a3 17 3e 75 c0 8e 3e
       -0.5847577 0.8987655 0.14808297 0.27881208
000030 dc 0c 01 3f 34 1f 46 3f b0 08 4b 3f 3e 21 f3 3d
       0.50410247 0.7739136 0.7931013 0.11871575

model.fc2.weight f4 [16, 16]
000000 0a 8e 06 3c eb 52 30 bd 52 1b 92 3e 3f 77 c6 be
       0.008212576 -0.043047827 0.2853647 -0.38762853
000010 84 bc 45 bd 9c 6f 00 bf 15 cf d0 3e 70 58 90 be
       -0.048275486 -0.501703 0.4078299 -0.28192472
000020 61 e3 02 3e ff d8 d7 bd e5 98 b4 3e 90 c4 78 bf
       0.1278205 -0.105394356 0.352729 -0.9717493
000030 49 a9 22 bf d2 e4 a1 be 50 76 8c 3c 84 8f 57 be
       -0.6353956 -0.3161989 0.01714626 -0.2105084
000040 b9 e3 af 3e 21 6e bb bb 72 d4 83 be d6 08 27 bf
       0.34353426 -0.0057199155 -0.2574802 -0.6524786
000050 c0 34 a9 be 95 3b 80 bf bb 1c 81 3e 66 ea ef 3b
       -0.33048058 -1.0018183 0.25217232 0.0073216436
000060 e0 3a 04 bd c8 fc 73 3e c4 8f 08 be 10 9d 35 be
       -0.03228271 0.23826897 -0.13336092 -0.17735696
000070 7e 7f a1 be 60 70 2f bf 61 72 b4 3e 82 47 94 be
       -0.3154258 -0.68530846 0.35243514 -0.28960806
000080 31 cc 88 3c 61 ca 54 bf 95 13 40 3e ad 99 75 3b
       0.016698929 -0.83121306 0.1875747 0.003747563
000090 b3 2d 1f 3e 1b b6 cb be 04 b8 52 3e 6d ba 14 bf
       0.15544777 -0.39787373 0.20578009 -0.58096963
0000a0 fe 8f cf bd a2 de 34 be 70 9c b5 3c 18 cc 10 bf
       -0.10134886 -0.17663053 0.022169322 -0.5656142
0000b0 29 5a 18 bf f9 c6 2c bf 56 47 ea 3e 16 b1 b0 3e
       -0.59512573 -0.6749111 0.4575755 0.34510106
0000c0 13 7c 62 bd ea cf 79 3d cc 7b 38 bf 7b 18 5a bc
       -0.055294108 0.060989298 -0.720639 -0.013311501
0000d0 84 ae f1 3e 3c 77 71 be 1d d7 92 bd 24 9e b4 3c
       0.47203457 -0.2358064 -0.07169936 0.022048064
0000e0 63 0d ca bd 32 da 8c 3b 1f 41 06 3f e3 c5 2b be
       -0.098658346 0.004298472 0.52443117 -0.16774707
0000f0 68 42 97 be 1e d0 1e bf ce fd 8a 3e b0 c3 dc bd
       -0.2954285 -0.6203631 0.27146763 -0.10779512
000100 a8 4a c6 3d 2b 12 21 be f7 9e e7 3e 9f 49 51 3e
       0.09682208 -0.15729587 0.45238468 0.2043824
000110 47 b7 9e be cc f1 61 3e 45 4b 87 bd 16 78 a2 3c
       -0.30999205 0.22064894 -0.066061534 0.019832652
000120 2f b4 41 bf ab 27 51 3e 90 14 cc bf ae bf 99 bf
       -0.75665563 0.20425288 -1.5943775 -1.2011621
000130 fd 50 99 bf a0 35 33 3e 48 b1 6d be 1b 3f c1 3e
       -1.1977841 0.17500925 -0.23212159 0.37743458
000140 08 83 2c be 5c a9 21 be d7 21 04 bf cf 2d 66 bd
       -0.1684686 -0.15787262 -0.51614136 -0.05619603
000150 68 31 5c 3e 16 02 b5 3d d0 1b af be 58 a3 eb be
       0.21503222 0.088382885 -0.34200907 -0.4602306
000160 b3 1d 87 be 9f 83 03 be 2b 4d 20 bc 0a 9f eb be
       -0.26389846 -0.12843178 -0.009784023 -0.46019775
000170 ec 30 9d 3e ae 6a 27 be 4f 30 92 3c 20 b6 4a 3e
       0.30701387 -0.16349289 0.017845301 0.19796038
000180 9d ac d0 be a7 00 0a 3e ce 3d 9c be b2 22 24 3d
       -0.40756693 0.13476811 -0.30515903 0.04007215
000190 9b 79 34 3e 1a be 5d 3e 92 9f 42 3e 57 ba 6f be
       0.17624514 0.21654549 0.19006184 -0.23410927
0001a0 43 17 09 bf bb 8f 80 3e 5d 44 d9 be 09 38 f9 be
       -0.5355112 0.25109658 -0.4243497 -0.48675564
0001b0 c9 b4 61 3e 08 0e 12 3f 00 7c f6 3e 8c 4b ac bc
       0.2204162 0.5705266 0.4814148 -0.021032117
0001c0 b5 a2 90 3d 92 41 44 bd 33 11 33 3e b6 dc bd bc
       0.07062284 -0.047914095 0.1748703 -0.023176532
0001d0 5a cd a8 be 29 0c 00 3e 60 21 5b bd 3b 7c 10 3f
       -0.3296917 0.12504639 -0.053498626 0.5643956
0001e0 97 8d 90 3e 4e 60 4a bf da cd be 3c 68 45 b0 3e
       0.28233024 -0.790532 0.023291517 0.34427953
0001f0 c8 b5 ce be 65 ba 5b 3f e0 d8 80 be 61 3f 44 be
       -0.40373063 0.8583129 -0.25165462 -0.19164802
000200 0c 42 c4 3e 3f dc 9a 3e b8 74 d8 3d 46 27 36 3e
       0.3833164 0.3024616 0.10569137 0.17788419
000210 58 b3 26 be ce 20 91 3e 47 59 9a be d3 7c a9 3e
       -0.16279352 0.2834534 -0.30146238 0.33103046
000220 0e 1f 83 bf b7 20 e9 bd 40 49 83 3e 24 96 a5 be
       -1.0243852 -0.11383193 0.25641823 -0.3234111
000230 94 e3 5d 3e ae ee 62 3d 2d 9c 12 3e cd c9 86 3e
       0.21668845 0.055403404 0.14317389 0.26325837
000240 d1 40 15 bf 4f be 0b bf eb 82 12 bf 8f 3d 88 3e
       -0.58302027 -0.5458726 -0.57231015 0.26609465
000250 d9 27 cd bd 03 86 3d 3d 4b 28 6e bd 05 51 6c bd
       -0.10017366 0.04627038 -0.058143895 -0.057694454
000260 79 af cf 3e e1 33 58 3e 82 0f 9f 3e 5a 64 e8 bd
       0.40563563 0.2111354 0.3106652 -0.113472655
000270 e9 80 f1 3e 58 b0 e1 3c 7e d3 be 3e d1 d0 7e bc
       0.47168663 0.027549908 0.3727073 -0.015552715
000280 3a 77 80 bf 91 45 45 bd f5 0d 32 bf 45 19 6f bc
       -1.0036385 -0.048162047 -0.69552547 -0.014593427
000290 bc 18 30 3e b7 3a a0 be 47 d2 0b bf 10 fd 82 3e
       0.17196935 -0.31294796 -0.5461773 0.25583696
0002a0 5a 58 c5 bd bc c3 32 3e e2 06 a0 3e 90 bf b4 3d
       -0.09635992 0.17457479 0.3125525 0.088256
0002b0 f1 45 14 be f7 75 01 3d ea af a1 3a a6 2e a6 be
       -0.14479806 0.03160664 0.0012335752 -0.32457465
0002c0 72 3c 03 bf b3 59 b1 3e df e9 a9 be 0b bf d7 be
       -0.5126411 0.34638748 -0.33186242 -0.42137942
0002d0 23 14 bc bd 82 66 96 bd 21 3e 9a 3e 39 53 c0 bd
       -0.09183528 -0.073437706 0.30125526 -0.093908735
0002e0 aa 94 58 bd 42 da 6b bf 44 48 b4 3e b6 d8 f5 be
       -0.052876152 -0.9212991 0.35211384 -0.480169
0002f0 39 b2 6b 3e 53 91 37 bf fe 6e ba be fb e3 dc bd
       0.23017205 -0.7170612 -0.36412805 -0.10785671
000300 97 d0 7e 3e bc e7 8e be 6e 83 24 3e f2 ad 6a bf
       0.24884258 -0.27911174 0.16065761 -0.9167167
000310 38 8e 56 3d 07 66 ed 3e cd f6 9c be df 14 0a 3e
       0.052381724 0.46366903 -0.30657044 0.13484524
000320 6b 36 e1 bd 6c 20 be be 03 6b f1 3d d7 fd 33 3c
       -0.109967075 -0.3713411 0.11787989 0.010985813
000330 8b dd 4d 3e e4 a4 1c 3e d7 fd 62 3d ab 55 98 3e
       0.20104043 0.15297276 0.05541786 0.2975286
000340 c9 87 77 3e 9f c3 1b be c9 52 dd 3d 5d 45 eb be
       0.24172892 -0.15211342 0.10806806 -0.45951357
000350 eb dd 06 be 27 18 a3 be c6 c5 b9 3e a2 bf 7c be
       -0.13170592 -0.31854364 0.36283702 -0.24682477
000360 00 7d 14 be 54 c7 f6 be fb 98 81 3e 4e e3 e7 be
       -0.14500809 -0.4819895 0.25312027 -0.45290607
000370 cb 87 00 bf b9 f4 27 3e cf 0e f2 3e 89 ab e3 be
       -0.50207204 0.16401948 0.47276923 -0.44466808
000380 c8 94 70 bd f1 ea 37 3e 63 dc f1 3e c8 7a 97 be
       -0.05873564 0.17960717 0.47238454 -0.29585862
000390 45 a7 9d bf 09 2d da be 07 ba 8e 3e 50 23 91 be
       -1.2316672 -0.42612484 0.27876303 -0.28347254
0003a0 9c 54 d7 3d 28 63 82 bd 05 7a a1 3e 1b 98 63 be
       0.10514185 -0.06366569 0.31538406 -0.22225992
0003b0 a1 e8 c2 bc 37 91 a8 be c9 86 69 be 0b 8d f7 3d
       -0.023792567 -0.3292329 -0.22805323 0.12087449
0003c0 45 df 29 be b2 36 a6 be 0f 59 11 bf 9c 91 72 3e
       -0.16589077 -0.32463604 -0.5677652 0.23688358
0003d0 ef e4 08 3f 9e 30 95 3d a9 2e 50 3e e6 7e 67 3e
       0.53474325 0.072846636 0.203303 0.22607002
0003e0 30 d0 71 be 99 cd 74 3e f9 b1 d2 3e 58 13 20 be
       -0.23614573 0.23906554 0.41151407 -0.15632379
0003f0 7c 06 05 3f 58 59 99 3e 21 df 86 3e 6d f8 1d 3f
       0.5196302 0.29950976 0.2634211 0.6170719

model.fc2.bias f4 [16]
000000 41 aa db be 3e e6 89 be 4a 64 97 be fa 64 5b 3f
       -0.4290333 -0.26933473 -0.29568702 0.85700953
000010 68 44 f1 bd 57 8c a2 bd a7 59 64 3e 81 b0 d8 be
       -0.117806256 -0.07936924 0.22299825 -0.42322162
000020 88 5c b9 bd 6a 4c d7 3e bc 03 25 3f 77 0b 2b bd
       -0.09050852 0.42050487 0.64458823 -0.04175898
000030 73 c4 d0 3e 14 c4 cc be 7d 5a 62 3d 7c a0 65 3e
       0.4077488 -0.39993346 0.055262078 0.22424501

model.fc3.weight f4 [2, 16]
000000 f1 2c 4d be fd e2 ec bd dc 55 50 3f ab 12 ca 3e
       -0.20036675 -0.11566732 0.8138101 0.39467368
000010 98 8c 30 bf 12 a4 81 bd 18 e4 a8 3e de c3 13 3e
       -0.6896453 -0.06330122 0.32986522 0.14430186
000020 65 06 05 3f 29 3f 00 3e 24 31 0e 3f 3b 17 ec be
       0.5196288 0.12524094 0.5554373 -0.46111473
000030 b1 1e 39 3e 0a 03 1a bf d0 ff 15 be ae bd 27 3e
       0.18078114 -0.6016089 -0.14648366 0.16380951
000040 38 24 11 3f f0 99 0e 3e 2b 77 5c bf 14 86 49 be
       0.5669589 0.1392591 -0.86119336 -0.19680053
000050 80 2f a2 3e 46 b0 9a 3d 05 c5 15 bf a8 f0 b4 be
       0.31676865 0.07553153 -0.5850375 -0.35339856
000060 90 d7 78 be 50 57 c3 be b8 2a 13 bf 36 a7 b3 3e
       -0.2430098 -0.38152552 -0.5748706 0.3508851
000070 71 70 02 bd 16 f2 af 3e bb 21 74 3e 00 88 97 be
       -0.031845514 0.34364384 0.23840992 -0.29595947

model.fc3.bias f4 [2]
000000 c6 91 d0 bb 0d 91 a8 be
       -0.006365034 -0.32923165
